lstm_autoencoder.pth (torch, 26763 bytes, 8 tensors)

encoder.weight_ih_l0 f4 [128, 5]
000000 e2 16 17 3e 2a ad 80 3d 55 66 26 3e 5e 44 d6 3d
       0.14754823 0.062830284 0.16249974 0.10462259
000010 39 0f d3 3d 07 f4 15 3e 77 ee 13 3e 70 fa 85 bc
       0.10305638 0.1464387 0.14446436 -0.01635477
000020 12 31 43 3d 79 f4 41 3d 7c 1b c1 bd 18 6b 46 3d
       0.04765422 0.047352288 -0.0942907 0.048441976
000030 52 84 cd 3d 51 a1 fb 3c 4c 76 4a 3e ce 22 67 3d
       0.10035004 0.03071657 0.19771689 0.056429677
000040 e7 64 51 3d af 5f d8 3d 38 c9 3a 3e 2d a7 8a be
       0.05112162 0.10565125 0.18240821 -0.2708067
000050 85 8f 56 3d 69 19 b3 bd ff f8 fa 3d c1 d7 bf bd
       0.052382965 -0.08745081 0.122545235 -0.09367324
000060 ec 61 96 bd da 70 2e 3e ac da 5d 3d ee 46 91 bd
       -0.07342896 0.17035237 0.05416362 -0.07093607
000070 b9 47 9c bd bd 0e 00 bd 0a d2 01 3e 32 24 88 bd
       -0.076308675 -0.031264056 0.1267778 -0.06647529
000080 e6 99 81 bd c2 bf de 3a 75 5a 81 3e 22 75 d5 bd
       -0.06328182 0.0016994404 0.25264326 -0.10422732
000090 53 10 c0 bd 71 35 da 3d 46 29 ed 3d ef d7 23 bc
       -0.093781136 0.106547244 0.11580138 -0.010000213
0000a0 a4 3c 61 3d f4 61 44 3d a8 ab 99 3d f3 8f 01 3e
       0.054989472 0.047944978 0.07503444 0.12652569
0000b0 17 24 2d 3e 1f f8 28 3c 24 6f 41 be 1f 2c 2e be
       0.16908298 0.010313063 -0.18890053 -0.17009018
0000c0 1a 84 46 bc 85 36 8f 3d 27 2f 31 3e 2b 4b c6 3c
       -0.012116456 0.06992821 0.17303143 0.024205765
0000d0 af 57 c4 3d 5c a3 42 bd 09 ee b6 3d c4 75 fe 3d
       0.09587037 -0.047519073 0.0893212 0.12424806
0000e0 7a 46 9f bd cf 68 a2 3d 3a ad 77 3c bf 1d df 3d
       -0.07777114 0.07930147 0.015116984 0.108943455
0000f0 d3 a5 66 3e 8a 86 53 bd 5f 9a 69 3c fd c6 87 bd
       0.22524194 -0.05164198 0.014257996 -0.06629751
000100 d1 c7 c0 3d 88 38 0b be 10 ac e6 3c 9f df 38 be
       0.09413112 -0.13595784 0.028158218 -0.18054055
000110 33 e8 c5 bb 08 d7 7e 3d 74 8e 69 3e cf 9b 82 bd
       -0.006039643 0.06221679 0.22808248 -0.063773744
000120 01 b2 1f 3e bf 81 60 be ae 63 32 bd bd 92 b6 bd
       0.15595247 -0.21924494 -0.043552093 -0.08914707
000130 68 c6 f6 bd 6d 25 fd bd 56 5b a5 bd 91 7c 2b 3e
       -0.12049562 -0.12360654 -0.080740616 0.16746737
000140 82 a3 ef 3d 13 af 58 3e c6 e4 e4 bc d1 d0 db bd
       0.117011085 0.21160536 -0.027941119 -0.10733188
000150 e8 92 2a bd be c8 76 3c c3 fe 05 3e 26 72 cd ba
       -0.041644007 0.015062509 0.13085465 -0.0015674278
000160 56 ba b8 bb f7 4d 12 3e 92 27 89 bd 4e 47 bb 3d
       -0.0056374473 0.14287554 -0.066970006 0.0914446
000170 8c ec 0f 3e 71 c4 c1 3c 8e f1 c7 3d 22 48 82 be
       0.14055079 0.02365324 0.0976287 -0.25445658
000180 11 90 8c bd d4 d7 8d be 89 51 30 3e 9a 4d 28 be
       -0.06863416 -0.27703726 0.17218603 -0.16435853
000190 b2 ff 74 3b 55 60 10 3e 12 82 03 3e f7 d6 92 bd
       0.0037383852 0.14099248 0.12842587 -0.071699075
0001a0 10 6b b0 3c 12 49 1d bd 4d 75 c6 bc e4 51 8c bd
       0.021535426 -0.038399763 -0.024225855 -0.06851557
0001b0 b8 3d 4b 3d 8b f7 11 be ba 0b 6c 3d 2c 6f 3a bd
       0.049619406 -0.14254586 0.05762837 -0.045516178
0001c0 56 fe 6c 3b a2 6f 24 3d 58 44 79 be cc 43 02 3e
       0.0036162338 0.040145524 -0.24342477 0.12721175
0001d0 1f 6b ec bd 33 18 a0 bd dd 39 39 bd d8 2e fa bd
       -0.11543869 -0.07817116 -0.0452212 -0.12215966
0001e0 dd 5d 11 3d fd c6 1e be 94 f1 f7 3d e3 cd 6b bd
       0.035489906 -0.15505596 0.12106624 -0.057569396
0001f0 49 ce 01 3e 70 18 d8 3d 91 58 dd 3d d1 6c cb bd
       0.12676348 0.10551536 0.10807908 -0.099328645
000200 5f 63 1a be 61 12 f3 bd c1 0a 94 3d 70 35 1f 3e
       -0.1507697 -0.1186874 0.07228614 0.15547729
000210 0e 2d 41 3e e4 39 b9 bc c2 43 43 3d 56 c9 39 3e
       0.18864843 -0.022610612 0.04767204 0.1814321
000220 6d 8d 8d b9 0e 02 36 bd 6c 42 32 3d 6e 15 0f 3e
       -0.00026998986 -0.044435553 0.043520376 0.13973019
000230 01 e9 8e bd 3f 74 90 ba 77 31 12 bd 12 55 8e bd
       -0.06978036 -0.0011020972 -0.035691705 -0.069498196
000240 85 0b 3c 3c cc 5a 01 3e 00 ea 50 3e 65 8d 73 3e
       0.011477356 0.12632293 0.20401764 0.23784406
000250 dd 27 23 be 94 54 75 b9 a3 51 d9 bd 1d a3 8a 3d
       -0.15933175 -0.00023396529 -0.10611274 0.06769393
000260 13 eb 4b 3d 83 81 05 bd 1f 31 01 3e ad eb 9d 3d
       0.04978473 -0.032594215 0.12616394 0.07710967
000270 e4 d4 47 3c 08 4f 1c bd b6 c2 f8 3d 63 af 3d bd
       0.012196753 -0.038161308 0.12146513 -0.04630984
000280 64 da ea bc 12 bb 10 be 51 59 b7 3d 44 4c 00 bd
       -0.02866859 -0.14133862 0.08952583 -0.031322733
000290 fe 99 fa 3d 86 35 9a 3d 41 7e 1e 3d f4 6c 5d 3e
       0.12236403 0.0752974 0.038694624 0.21623594
0002a0 f6 74 14 3d 4d 37 af 3d 78 59 7b 3d e9 85 94 bc
       0.036244355 0.0855547 0.06136462 -0.01813026
0002b0 28 50 77 3e da c9 4c 3d 1f 3b b8 3d 9d 03 56 be
       0.24151671 0.04999719 0.089956515 -0.20899816
0002c0 4e 0d 02 3c 83 ae 9c 3d 5e 8f 1c bd 06 ef 9a be
       0.007937742 0.07650473 -0.038222663 -0.30260485
0002d0 19 6d 95 3d 35 7c a4 bb 38 3b 6e be 8f 19 41 3d
       0.07296199 -0.0050196894 -0.23264778 0.047143515
0002e0 8b e1 6b be 62 d7 48 be 13 ea 28 be 2d 76 1a be
       -0.23035257 -0.19613412 -0.16495542 -0.15084143
0002f0 c3 ae 35 bd bc 23 5f 3c 25 c4 6e bd 5a 80 81 bd
       -0.04435612 0.01361936 -0.058292527 -0.06323309
000300 95 8b 48 3d 38 25 38 3d bb e0 fb bc ea 50 a0 bd
       0.04896124 0.04495737 -0.030746808 -0.07827933
000310 98 6f e5 bd 1c b1 e6 3d 69 96 d6 bc a9 c5 32 bd
       -0.112029254 0.1126425 -0.026194768 -0.043645535
000320 72 96 34 3e f9 30 01 bd 9d 6c 6c 3d 3f 42 c5 bb
       0.17635515 -0.031540845 0.05772077 -0.00601986
000330 f4 81 17 3d 13 a4 ab 3a 9c a6 2d bd cd 18 39 bd
       0.036989167 0.0013095163 -0.04239522 -0.045189667
000340 6d be 5b 3e f5 2b fe 3d 92 65 b3 3d 75 d6 ee bd
       0.2145936 0.12410728 0.087596074 -0.11661998
000350 64 35 d3 bd 07 00 1a be 0a b0 4a 3d 65 17 15 be
       -0.10312918 -0.15039073 0.04948429 -0.14559706
000360 b5 04 c7 bd 51 53 42 bd 28 68 81 3e 62 28 ba 3d
       -0.09717695 -0.047442738 0.25274777 0.09089734
000370 38 e9 62 3e eb 7b 91 3e ba cd 91 3d a9 63 ec bd
       0.22159278 0.28414854 0.07119317 -0.11542446
000380 66 4d 16 3d fb 22 7e be f4 f0 2e be 97 f6 c8 bd
       0.036694907 -0.24818031 -0.17084104 -0.09812658
000390 3f 80 6c bd 88 ec 89 bd ba 6e 9d 3e 4b 57 60 3e
       -0.057739493 -0.06734568 0.3074854 0.219083
0003a0 5b 7b 56 3e 7c 36 4d be f0 38 4f 3e c4 fb 38 3d
       0.20945494 -0.20040315 0.20236564 0.045161977
0003b0 4a 2c 33 3e 05 92 89 3d 00 ad 45 be 7a fd 3b 3e
       0.17497364 0.06717304 -0.19304276 0.18358412
0003c0 c8 71 24 bd e2 ec 44 3d ee 21 54 3e 41 f2 d3 3c
       -0.040147573 0.04807747 0.20716068 0.025872352
0003d0 4e 32 d8 3d 75 01 aa 3d d4 80 39 3e 0c 85 2a 3e
       0.1055647 0.08301059 0.1811555 0.16652316
0003e0 c6 20 c8 bd 0f 93 11 3e 79 0b 57 be 8a 42 27 bd
       -0.09771876 0.14216255 -0.2100047 -0.04083494
0003f0 1c 29 23 be ec 7c 13 3e b2 80 4c be 7c 60 be bc
       -0.1593365 0.14403123 -0.19970968 -0.023239367

encoder.weight_hh_l0 f4 [128, 32]
000000 25 75 24 3e b3 fa 81 bd a0 88 39 bd 8f 17 90 bd
       0.16060312 -0.06346645 -0.04529631 -0.070357434
000010 0c a4 42 3d 02 30 2f bc 22 c9 0a 3d 7b 5e 97 3d
       0.04751973 -0.010692598 0.03388322 0.073910676
000020 97 dc 5d 3d 64 49 0e 3d 9a 71 00 be 69 b8 8a 3d
       0.05416545 0.03473796 -0.12543336 0.06773455
000030 e8 bc 20 bd ef 39 3d 3d 81 c2 51 3d 2e 61 b0 bd
       -0.039242655 0.046197828 0.051210884 -0.086122856
000040 aa 53 50 be 17 76 ad 3d 97 86 65 bd d9 7d 1c 3d
       -0.20344415 0.084697895 -0.056036558 0.038205955
000050 22 32 00 be 10 f0 2e 3d c1 76 ce 3d 52 ea 1e 3d
       -0.12519124 0.04270941 0.10081244 0.038797684
000060 d5 94 b6 3d e9 99 bc 3d 40 a2 4c be cf 11 d9 3d
       0.08915106 0.092090435 -0.19983768 0.105991
000070 24 ae 24 bd 4c 9c f3 3c 70 46 c0 3c 7d 4c 47 3e
       -0.040205136 0.029737614 0.023471087 0.19462772
000080 14 59 21 3e 31 16 76 bd d9 00 3f 3e aa 3c 2d bb
       0.15756637 -0.060079757 0.18652667 -0.0026433864
000090 62 e8 28 3e 9f 9a 12 3e fa a2 b5 3c 5d 57 13 3e
       0.16494897 0.14316796 0.02217244 0.14388795
0000a0 56 e9 b6 3d e6 08 43 be 36 5f 4d 3e aa f3 89 be
       0.08931224 -0.19046363 0.20055851 -0.26943713
0000b0 29 1d 3e 3d 1a 0c d8 3d 5f 3b d5 bd 8a 32 a3 be
       0.046414528 0.10549183 -0.10411715 -0.31874496
0000c0 fa 60 2a be 64 69 a4 bc 0b 88 f4 bd c6 af 02 bd
       -0.16638556 -0.020069785 -0.11940011 -0.031905912
0000d0 06 f2 7c bc 52 97 a5 3d 60 b1 95 3d d7 93 a2 3d
       -0.015438562 0.08085503 0.07309222 0.079383545
0000e0 75 0e 75 bc 74 6b 1d be c2 11 76 ba d8 97 7a 3c
       -0.01495706 -0.15373021 -0.00093868014 0.015294991
0000f0 4d 2b 88 bb d1 00 8b 3d 50 e0 f0 bd c2 c0 03 be
       -0.0041555525 0.06787265 -0.11761534 -0.128665
000100 48 d7 bf 3c 10 a6 6f 3e 5d c5 40 3e 60 bd 8b 3d
       0.023418084 0.23403192 0.18825288 0.0682323
000110 60 38 13 3d d9 86 93 3e 06 4f ea 3c 96 75 1c 3e
       0.035942435 0.28813818 0.028602134 0.1527923
000120 d8 80 be bd 75 99 a1 bd f0 87 76 3c 55 10 7a be
       -0.09301919 -0.07890598 0.015047058 -0.24420293
000130 67 79 ba 3d d0 16 e4 3d ed 55 b5 bb d9 68 e4 bd
       0.09105187 0.11137164 -0.005533925 -0.111528106
000140 b3 71 53 be 47 f5 c2 3c 6f 4d 87 3d 68 60 00 3e
       -0.20648842 0.023798598 0.06606566 0.12536776
000150 c4 bd 1c 3b 39 3f 30 3e 40 a3 f3 bb 33 35 26 3d
       0.002391682 0.17211618 -0.0074352324 0.04057808
000160 6d e2 0f bd f2 74 8a 3d a0 70 2c be 97 bd 11 3e
       -0.035128046 0.06760587 -0.16839838 0.14232479
000170 c4 8d d8 bd 77 e1 8a bd a2 35 8f bd 63 dc 4a be
       -0.10573915 -0.06781285 -0.069926515 -0.19810633
000180 10 d1 f7 3d de 06 54 3d 87 c5 dc bd d2 c8 8f bc
       0.121004224 0.05176436 -0.10779863 -0.017551813
000190 d4 a7 9f be 9c 29 7d be a1 e8 02 bd 30 79 9d bd
       -0.3118273 -0.24722904 -0.031960133 -0.0768913
0001a0 cc 51 cb 3c b0 90 c1 bd 9a 94 12 3e 62 14 e5 3d
       0.024819277 -0.09451425 0.143145 0.11185528
0001b0 56 07 8c 3c 7a 5c 9d be 3c 33 c4 3c ea 84 32 3d
       0.017093342 -0.30734617 0.023950212 0.043583788
0001c0 4c f3 ee 3d a9 08 9b 3c d0 0d 9c 3e 8e 69 96 bd
       0.11667499 0.018925028 0.30479288 -0.07344352
0001d0 9c d8 18 3e 16 12 8f be 0f e6 3d 3e 0b a2 41 3b
       0.1492638 -0.27943486 0.18544792 0.0029546048
0001e0 5e 67 44 be 63 9b 09 be 39 86 54 be 66 65 ad bc
       -0.19180056 -0.13438182 -0.20754327 -0.021166515
0001f0 19 da d9 bc 31 f0 da 3d e1 bc a6 bd 90 14 0a 3e
       -0.026593255 0.10690344 -0.081414945 0.13484406
000200 97 52 f2 bd 85 a1 11 be 4e 01 37 bc 6e 29 85 3e
       -0.11832159 -0.14221771 -0.011169745 0.2600817
000210 cb 30 7b be 8f f7 b4 bd 4b f7 56 be bc 9f 7a 3c
       -0.24530332 -0.088362806 -0.20992772 0.015296873
000220 9c 60 0a be 79 ff 2c 3e 73 19 68 3d 6b 7c 4e ba
       -0.13513416 0.1689433 0.056664895 -0.0007876816
000230 e7 83 8a bd 50 50 5a be a4 ef 54 3e 96 b8 b6 bc
       -0.067634396 -0.213197 0.2079454 -0.022304814
000240 35 83 65 3e 8e 38 0d be 70 84 5d 3e bb 3e 32 be
       0.22413333 -0.13791105 0.21632552 -0.17406742
000250 8e 7c 0d ba e6 10 15 bc 38 5d 33 be f2 f6 57 3e
       -0.0005397283 -0.009098267 -0.17516029 0.21090296
000260 1e 78 50 be d1 79 04 bd 06 f1 67 3e ca 73 6e 3d
       -0.20358321 -0.032342736 0.22650537 0.058215894
000270 10 cf 9e bd 29 ef d4 bc 6f 85 0b 3e 93 29 82 3d
       -0.07754338 -0.025992947 0.1362512 0.06355586
000280 fc 67 c2 3d fc f8 62 3e 21 4e 26 be 57 06 47 be
       0.0949249 0.22165293 -0.16240741 -0.19436012
000290 ba 6d f8 bd 6e 4b 17 3e 09 0d 57 3d 34 42 25 be
       -0.12130304 0.14774868 0.052502666 -0.16138536
0002a0 71 66 80 3d 53 ca 3e 3c 4a f1 99 3c 12 70 41 bd
       0.06269539 0.011644918 0.018791813 -0.04722602
0002b0 f3 52 d1 3d 7f ae a4 3d 95 9d 02 be 81 93 45 3e
       0.102208994 0.08041095 -0.12755425 0.1929455
0002c0 e9 44 ce bc 7a ac bb 39 d1 6b 81 3e cf 00 1e be
       -0.025179343 0.00035795924 0.2527757 -0.15429996
0002d0 c9 ca 03 be 3b 54 ce 3c 52 78 6a bd 39 93 17 3e
       -0.12870325 0.025186649 -0.057243653 0.14802255
0002e0 26 1c fe bd 8a 05 59 bd 8d 64 8d 3d fc 99 23 3e
       -0.12407713 -0.052983798 0.06903944 0.15976709
0002f0 6b c1 d7 3d 1c 9a 6f bd 3e 7b 04 bd 31 65 31 3d
       0.105349384 -0.05849658 -0.032344095 0.043309394
000300 44 71 84 3d 70 f8 fb 3d 7b 22 34 3c 1f a9 80 be
       0.06466916 0.12303245 0.010994549 -0.2512903
000310 35 4b 80 3d b6 ec 81 3d 19 96 97 bd 33 23 fd bd
       0.062643446 0.06343977 -0.07401676 -0.12360229
000320 8b 45 35 3e f9 0b 77 3c 40 80 49 3e f2 5c d6 3c
       0.1770231 0.015078538 0.1967783 0.026167367
000330 24 ce 35 3d f3 ad 06 3c 46 ae e0 bd 6d 55 03 be
       0.044386044 0.008220184 -0.1097074 -0.12825556
000340 2a 6e 35 bc 2a 42 a2 3c e9 b2 48 3e 3b cf 85 be
       -0.011073628 0.01980694 0.19599499 -0.26134667
000350 27 90 5c be a3 8a 77 3d 29 5a 82 3d 8c 79 a5 3d
       -0.21539365 0.06043495 0.06364853 0.08079824
000360 ab 3d 64 be 06 4a 76 3e f0 35 4c be eb 2d c1 3d
       -0.2228915 0.24051675 -0.1994245 0.09432586
000370 a4 c1 07 3c 6a 60 81 3d 5d 19 29 be 80 ea 1f be
       0.008285914 0.06317218 -0.16513582 -0.15616798
000380 77 48 6d 3d b2 76 de bc d0 20 3a 3e c7 03 3b 3e
       0.057930436 -0.027156208 0.1817658 0.1826316
000390 7c ab 5d be 2e f5 d8 3c 77 b0 32 be 3c 59 a1 be
       -0.21647447 0.026484098 -0.17450128 -0.31513393
0003a0 24 01 01 3e 58 75 14 3e a1 54 2a 3d 0d c0 d8 ba
       0.12598091 0.14497888 0.041584615 -0.0016536728
0003b0 50 b5 37 3e 4f 3c e9 bd 14 f2 49 be 3b 9a 16 3e
       0.17940259 -0.11388456 -0.19721252 0.14707272
0003c0 ea d6 62 be 8a eb 31 3e c6 09 56 3e cc 23 36 be
       -0.22152296 0.17375007 0.20902166 -0.17787093
0003d0 d3 a5 b1 bd 03 80 1a be be 54 3f 3e 62 3d 72 3d
       -0.086742066 -0.15087895 0.1868467 0.05914057
0003e0 30 bb 62 b9 a9 85 86 3d e1 f8 af bd be da 49 3e
       -0.00021622772 0.065684624 -0.08592392 0.1971235
0003f0 e7 fc 08 3e 7c b7 dd 39 e2 cb 8d be 53 91 87 3d
       0.13377725 0.0004228911 -0.27694613 0.06619515

encoder.bias_ih_l0 f4 [128]
000000 16 da 2c bd 33 66 3a 3e f0 2e a5 3d 8f 1a 35 3e
       -0.04220017 0.18203048 0.08065593 0.17685913
000010 05 49 0d bd 47 a3 f8 3d 61 21 a0 3c 79 4e e5 bc
       -0.034493465 0.12140518 0.019547166 -0.02799152
000020 47 98 17 3e 9a 6d bf bc ac 7a 02 3e d0 2e fd bc
       0.14804183 -0.023367692 0.12742108 -0.030906111
000030 c5 dc 04 bd 2f b7 dd 3d b5 0b 13 3d f0 22 75 3c
       -0.032437105 0.10825955 0.035899837 0.014961943
000040 26 57 9a bd a0 89 78 3e b6 96 84 3d d9 bd 75 3e
       -0.075361535 0.2427125 0.06474058 0.23998202
000050 62 6c e2 bd a2 9e 0b be cc ca f2 3d 99 91 1b be
       -0.11055829 -0.13634732 0.11855087 -0.1519226
000060 cd 43 5f 3e 7d 28 3a be bb f2 b0 3c b9 4f 41 3e
       0.21803208 -0.18179508 0.021600118 0.18878068
000070 01 e4 dc bc e2 3e 12 bd ca 58 00 be b3 0c 83 3d
       -0.02696419 -0.0357045 -0.1253387 0.063989066
000080 14 0d d4 3d a2 09 fd bc 46 b2 4f 3e 83 ac 77 3e
       0.10354057 -0.030888382 0.2028285 0.24186902
000090 fa cd 90 3d c5 8a e6 3d 2e d9 44 3e 53 72 2d 3e
       0.07070537 0.11256937 0.19223472 0.16938142
0000a0 9d d9 05 3e 88 ae ca 3d c4 29 4b 3e 37 d5 7d 3d
       0.13071294 0.098965704 0.19840151 0.061970916
0000b0 9e 18 26 3e 6c be f2 bb 3d 26 48 3e 8f 43 3f 3e
       0.16220328 -0.007407954 0.19545837 0.18678115
0000c0 70 02 5a 3d 42 4d 91 3d 25 b6 93 bd 0c eb b6 3d
       0.05322498 0.07094814 -0.07212476 0.089315504
0000d0 52 4f 0f 3e 30 cc 4d 3b 37 51 cd 3d af 8e d9 3c
       0.13995102 0.0031402223 0.10025256 0.026557295
0000e0 7c 06 43 bd 12 8f 14 3e 6d 92 28 3e 50 35 78 bd
       -0.047613606 0.14507702 0.16462107 -0.060597718
0000f0 e9 8e ba 3d 0f c3 90 3e dc af 51 3d 59 47 a6 3c
       0.09109289 0.28273818 0.051193103 0.020297693
000100 0f ae f7 3d e6 ec 38 3e e7 ed a4 bd 02 36 20 be
       0.12093746 0.1805912 -0.08053189 -0.15645602
000110 6b 41 01 3e 99 98 c5 3d 71 01 bf bd 62 83 71 bb
       0.12622611 0.09648246 -0.09326447 -0.0036851992
000120 b4 41 ff bb 46 4d 92 bd 14 c5 e2 3d 92 b6 b6 bd
       -0.007789815 -0.07143645 0.11072746 -0.08921541
000130 ca e7 1a bd 50 7f 0b 3d 8c 59 e1 3d 00 dd f7 3d
       -0.037818708 0.03405696 0.11003408 0.12102699
000140 b6 5e 3d be 50 f6 ad 3c 2e d9 0d bc 45 62 1a 3e
       -0.1849316 0.021235615 -0.008657737 0.1507655
000150 79 2f 6f be 6e 65 7c be 53 15 10 3e e5 32 e2 bb
       -0.23357953 -0.24648067 0.14070635 -0.0069030398
000160 db e4 f4 bd ff fe 17 3e ce 6c e4 bd bd 7e 35 3c
       -0.11957713 0.14843367 -0.11153565 0.01107758
000170 6f 3e 83 bd 2d 53 45 bd 22 46 60 be f9 60 54 3d
       -0.06408393 -0.048175026 -0.21901754 0.051850293
000180 2d 78 00 3e 17 40 a0 bd 82 df db 3d 15 50 ce 3c
       0.12545843 -0.07824724 0.1073599 0.02518467
000190 53 14 a3 bd df 4a 77 3e 98 f6 21 3d ba 97 21 bc
       -0.07962861 0.24149655 0.03954181 -0.009862835
0001a0 cf 36 c1 bd 64 e8 90 3d ee a1 28 3e 28 d7 40 3e
       -0.09434282 0.07075575 0.16468021 0.18832076
0001b0 dd fd 67 3d dc 7b 9a bd 8f c2 6a 3d 19 ca 24 3d
       0.056638587 -0.075431556 0.05731445 0.040231798
0001c0 8d cd 30 bd 3d 4d 83 3e 10 47 3a bc 82 30 4b 3e
       -0.04316478 0.25644866 -0.011369482 0.19842723
0001d0 67 c6 ae 3d 34 bb ab 3c 6a 44 0d 3e 87 e3 ca bc
       0.08533936 0.020963289 0.13795629 -0.024766697
0001e0 0c 10 08 3e 3e fc 30 3e 26 e8 71 3d 6d 0e c1 3b
       0.13287371 0.17283723 0.059059285 0.0058916123
0001f0 f4 a0 39 3e 7c 60 4d 3e 07 c6 2a 3e d6 b4 8f 3c
       0.18127805 0.20056337 0.16677104 0.017542284

encoder.bias_hh_l0 f4 [128]
000000 c9 78 36 3e 0a 51 c7 bc be 62 de bc 0f 44 10 3d
       0.17819513 -0.024330635 -0.027146693 0.035221156
000010 1c db d8 bd 9d 14 65 3e c2 e6 0a 3e da 12 ff 3c
       -0.10588667 0.22371145 0.1356459 0.031136919
000020 1f 33 93 3d da 55 5a 3d 0a b5 d9 3d 0b 9d 54 3e
       0.07187485 0.05330453 0.106302336 0.20763032
000030 c9 cc d7 bd f4 fc 13 3e d5 63 a6 bd e1 8d 71 3e
       -0.105371065 0.14451963 -0.0812451 0.23589279
000040 22 e9 79 3e e0 a0 3c 3e cb 06 31 bd c1 27 f6 3d
       0.2440534 0.18420744 -0.04321937 0.12019301
000050 f7 a4 38 3e 2d ec f5 3d 7e e6 1b 3e 0a 26 ae 3d
       0.18031679 0.120079376 0.15224645 0.08503349
000060 9d 83 13 3d 96 9d c7 3d 57 a8 f9 3d 33 c5 2d 3d
       0.036014188 0.09746854 0.121903114 0.042424392
000070 b2 0b 62 3e 72 81 67 3d b1 56 ed 3d 77 f1 00 3b
       0.22074774 0.056519933 0.11588801 0.0019675174
000080 5c 50 0a 3e 9b a5 3f bd b4 60 58 3e 50 15 22 3e
       0.13507217 -0.046788793 0.2113064 0.15828443
000090 4b 26 06 3d a3 1b ab 3d c7 95 96 bb b8 5d 77 3d
       0.032751363 0.08354881 -0.0045954916 0.06039211
0000a0 1e 78 88 3c 47 69 17 bd 84 da 50 3e e8 8b 46 3b
       0.016658839 -0.036965635 0.20395857 0.0030295793
0000b0 ca 5e 3e bd 93 26 67 3e 34 b3 80 bc 2b 7f 00 bc
       -0.046477117 0.22573309 -0.01571045 -0.007842819
0000c0 45 ff 8c 3b de 35 3f 3e 0f fe 46 3e 77 28 80 3e
       0.0043028914 0.18672892 0.19432853 0.25030872
0000d0 a2 b0 1c 3e a5 7c 1c 3e ad 27 a4 3d dc 10 67 bd
       0.15301755 0.15281923 0.0801538 -0.056412563
0000e0 ea 20 89 bc 72 84 87 3d 6d ff a3 bd 94 96 85 bd
       -0.016739327 0.06617059 -0.08007703 -0.06522861
0000f0 63 9d 2b bd 19 1f e4 3d b3 21 e8 bd 86 3b b3 3c
       -0.041898143 0.11138744 -0.113345526 0.021878969
000100 f0 6f f3 3c 3e cb 79 bc 59 e9 7c 3d 95 84 9b bd
       0.029716462 -0.015246211 0.061745975 -0.075936474
000110 3e 95 9c 3d 25 aa 7a bd 30 f5 9a bd 59 e8 45 be
       0.07645653 -0.06119742 -0.07566297 -0.19326915
000120 9b 1b ef 3d f6 a9 30 be f6 19 8d 3d f2 3d 13 3e
       0.11675187 -0.17252335 0.06889717 0.14379099
000130 e7 fc 09 3d 0e 08 c3 bd 92 69 5b bd 48 75 71 3e
       0.033688452 -0.09523021 -0.053567477 0.23579895
000140 5c d2 ab bd 7b 06 77 3c 9c 1e 0f 3e ee 63 2c be
       -0.08389732 0.015077229 0.1397652 -0.16834995
000150 34 21 de 3d d5 b3 a9 3d 4d 79 25 3e e5 17 34 be
       0.10846177 0.08286253 0.16159554 -0.1758724
000160 5d a9 a3 3d 59 3e 8b 3d df 2a c2 3c 53 b7 29 3d
       0.07991288 0.06799001 0.023702083 0.041434597
000170 ad 72 29 3d 21 e8 97 3d ce 74 b7 3b 62 20 51 3e
       0.04136913 0.07417322 0.005598641 0.2042251
000180 12 0a ad bc 20 9d 34 3e d3 bf 9b 3d b8 8c 39 3d
       -0.021122966 0.17638063 0.07604947 0.045300215
000190 58 51 d0 3d 8d a4 36 3d 2b 4c 92 39 65 5f bb 3d
       0.10171765 0.04459052 0.0002790404 0.091490544
0001a0 d1 f7 09 3d aa d1 4e 3e 2b bb 13 bc f5 1d 18 3e
       0.0336836 0.20197168 -0.009016792 0.14855178
0001b0 a6 60 9b 3d 6e 18 6d 3e 0d d9 0d 3c 29 ef bd 3d
       0.075867936 0.2315385 0.008657706 0.09274132
0001c0 6d d6 14 3e cd fd 86 bd a6 a1 6c bd d1 30 da 3d
       0.14534922 -0.065913774 -0.057771347 0.10653842
0001d0 55 93 be 3d 05 d0 0c 3e 7f 20 7c 3d dd b8 57 3d
       0.09305445 0.13751228 0.06155443 0.052666534
0001e0 4e d6 61 3e 54 c3 09 bd bc 90 64 bd c4 0a 34 3d
       0.22054407 -0.033633545 -0.055802092 0.04395558
0001f0 2f ec 9e 3d ac 65 39 3e 7a 9f 84 3e 62 99 05 bd
       0.07759892 0.18105191 0.2590292 -0.03261698

decoder.weight_ih_l0 f4 [20, 32]
000000 71 78 d6 be f5 d8 36 bd b9 d0 48 be 17 b7 39 be
       -0.41888765 -0.0446405 -0.19610871 -0.1813625
000010 1b 61 57 bd ad 70 bf bd 92 b6 1e be e8 b3 00 bf
       -0.05258284 -0.09347663 -0.15499333 -0.50274515
000020 b1 6a d9 3d 0c 53 0d 3e 72 fe 9e 3e 03 e3 2d 3e
       0.10616053 0.13801211 0.310535 0.1698113
000030 2a 3a 8c 3e 18 ce bd be 67 d7 a0 be 56 3d ef bd
       0.27388126 -0.370713 -0.3141434 -0.11681621
000040 f7 be 31 be dd a7 b9 3e 34 78 05 bc fe 75 d3 be
       -0.17358004 0.36260882 -0.008146334 -0.41300958
000050 85 76 58 be 71 39 8f 3e e8 e6 2d 3d 48 bd b2 3e
       -0.21138962 0.27973512 0.042456537 0.34910035
000060 80 69 e6 be 16 e4 0b 3f ff b6 8c be 2e 53 83 3c
       -0.45002365 0.54644907 -0.27483365 0.016030874
000070 60 d8 a7 be 8a 2d 32 3e 5b 0d 6b 3e 84 e1 4a 3e
       -0.3278227 0.17400184 0.22954313 0.1981259
000080 14 a3 09 bd 75 ca d5 3e 7f e7 81 bd 38 93 8b 3d
       -0.03360279 0.41756025 -0.063429825 0.06815189
000090 19 da 07 3e aa b1 1e bd 79 a5 02 3e 4e 33 1d bf
       0.13266791 -0.038743652 0.12758435 -0.6140641
0000a0 06 d6 b4 3e 84 25 80 3e 47 fe de 3d fb 62 69 3e
       0.35319537 0.25028622 0.10888343 0.22791664
0000b0 b5 e8 ff 3d 80 41 dd be c1 1d 04 bf 73 80 33 be
       0.12495557 -0.43214035 -0.516079 -0.17529468
0000c0 13 55 97 be 67 e4 a6 3e 9c 70 e7 3d f4 e7 f7 be
       -0.29557094 0.32596132 0.113007754 -0.48419154
0000d0 46 26 d3 be 84 94 4f 3e 7e e2 27 bc 3c 71 20 3e
       -0.41240138 0.20271498 -0.010246871 0.15668195
0000e0 00 3e cb bb 9e 01 ff 3b 18 56 d7 3c 34 0e b1 be
       -0.0062024593 0.007782175 0.02628617 -0.3458115
0000f0 a3 9d 87 3e fc 48 48 3e d2 47 a5 bd 52 0a ac 3e
       0.26487455 0.19559091 -0.08070339 0.33601624
000100 07 2d 63 3e b3 27 ac 3e 75 73 e0 3e d4 09 a0 be
       0.22185145 0.33624038 0.43838087 -0.31257498
000110 f6 ad 08 bf 1c f7 8c 3e d2 b0 98 bd ec 13 f5 be
       -0.53390443 0.2753228 -0.07455601 -0.47866762
000120 19 c5 9a 3c dc 06 2e 3e 81 1e 1d 3e 65 ff ae 3e
       0.018892812 0.16994804 0.15343668 0.34179226
000130 c4 48 e0 3c 7a 49 83 3e 40 d6 e9 bd 15 30 6c 3d
       0.027378447 0.25641996 -0.11417818 0.057663042
000140 9a dd ec be 12 d5 a8 3e 3f db 9a bb 5f ed 31 be
       -0.4626282 0.3297506 -0.004725843 -0.17375706
000150 ed 8a 08 3d ac f0 a0 be 5e e5 f4 3e 29 fd 5e 3e
       0.033335615 -0.31433618 0.47831243 0.2177626
000160 68 0f 71 3e 20 c3 bc 3e bd ef e6 be be 58 f3 be
       0.23541033 0.3686762 -0.4510478 -0.47528642
000170 89 1b 83 3e 64 57 ef 3d e5 f1 27 3e a0 03 9b bd
       0.25606945 0.1168659 0.16400869 -0.07569051
000180 38 05 04 3e 10 a0 70 3e bd 28 09 be d7 3b 76 3d
       0.12892616 0.23498559 -0.13394447 0.06011566
000190 3d 04 b0 be 10 90 91 be a1 9d b2 3c 17 46 95 be
       -0.34378234 -0.28430223 0.021803679 -0.29155037
0001a0 3f 8e 6d bd 35 5f b3 3e 98 a4 70 3e 42 2e 7c 3e
       -0.057996985 0.35033575 0.23500288 0.24627021
0001b0 8a 2f 7f 3e aa 60 da be 99 27 5a 3e fa b9 18 3d
       0.24920478 -0.42651874 0.21304168 0.037286736
0001c0 f1 c0 c8 be c4 df 01 3f 2c 1c f1 bc 6c 47 32 3e
       -0.39209703 0.50732064 -0.029432379 0.17410058
0001d0 30 ec b0 be ff 8a 28 be f3 f1 60 be cc 76 00 3f
       -0.34555197 -0.16459273 -0.21967296 0.5018127
0001e0 00 f3 63 be cc f4 bc bd 1a b7 27 be 10 52 c2 bc
       -0.22260666 -0.09226379 -0.16378441 -0.023720771
0001f0 47 a8 b1 3c 66 e4 96 3e c9 53 ee be c5 c9 3d 3e
       0.021686686 0.2947113 -0.46548298 0.18534
000200 fb 3c 04 3f 64 4c 7a 3e 6a e7 09 3f fc 3b 84 3d
       0.5165555 0.24443203 0.53868735 0.064567536
000210 62 cb 3c be 9d e0 8b be 82 19 10 3f d0 20 29 bc
       -0.1843696 -0.27319804 0.5628892 -0.0103227645
000220 65 b8 0e 3f 42 42 55 be d8 c7 3a 3e c7 74 a7 3d
       0.55750114 -0.20826057 0.18240297 0.081765704
000230 23 1a 29 3e bd b0 52 be 03 29 8a be 40 80 a8 3e
       0.16513877 -0.20575233 -0.26984414 0.32910347
000240 df 64 76 bd 73 f1 8e bc 78 02 a4 bd 21 80 80 be
       -0.060154792 -0.017449116 -0.080082834 -0.25097755
000250 42 bf 30 3e 7e 52 ac be 8c 94 99 be ac 87 e9 3c
       0.17260459 -0.33656687 -0.29996145 0.028507076
000260 1d 43 34 3e a8 09 08 3e 78 95 48 3e 27 1d 81 3e
       0.17603727 0.13284934 0.19588268 0.25217554
000270 ab 6f a0 3e ca 60 a4 be 6c 3f ca be 58 75 80 bd
       0.31335196 -0.32105094 -0.39501512 -0.062723815
000280 24 cc c2 bb f8 46 12 3e de d3 d7 3d f6 da 1b 3f
       -0.0059447456 0.14284885 0.10538457 0.6088098
000290 48 00 cb 3d 34 3a 45 be f4 aa 97 3d 6e 2f aa 3e
       0.09912163 -0.19260484 0.074056536 0.3323931
0002a0 a5 da e6 3e 0c 86 f8 3e 08 4d bc be 98 2f b9 3e
       0.45088688 0.4853977 -0.3677752 0.36169124
0002b0 9b 22 b9 3e 5d 15 8a be d9 73 c5 be 76 ec ae be
       0.36159214 -0.26969424 -0.38564947 -0.3416478
0002c0 1d 75 0a 3e 9a 55 2e 3e 31 d1 55 3d b2 dd 8a 3e
       0.13521238 0.17024842 0.052201454 0.27122265
0002d0 02 85 bb 3e a1 61 d6 3a 42 c3 11 3e 6a a6 7b bd
       0.36624914 0.0016356 0.14234641 -0.061438
0002e0 3e 68 af 3d 52 3a d5 bd 93 dd a5 3e bb 79 73 3e
       0.085648045 -0.10411514 0.3239561 0.23776905
0002f0 87 8d aa be 31 c8 82 be b0 f9 82 3e 1c af 68 3e
       -0.33311102 -0.2554336 0.2558112 0.22723049
000300 12 8c 5b be f7 9b b0 be 1b 98 b0 be 3c a0 8a 3e
       -0.21440151 -0.34493992 -0.34491047 0.27075374
000310 27 6e b3 bd ee 9e 68 be 50 9f d8 3e 11 e5 4e be
       -0.08761244 -0.22716877 0.42309046 -0.2020457
000320 d0 91 d7 be 9b 0d eb 3e 1e 64 c3 bd 43 89 5e be
       -0.42103434 0.45908818 -0.0954058 -0.21732049
000330 c5 e5 f4 3e bf e4 74 3e 5f 6c 38 3e 30 72 90 3c
       0.4783155 0.23915385 0.1801009 0.017632574
000340 01 7d 8d be 02 00 d8 3e d1 2d 9e 3e 82 cc 3d be
       -0.27634433 0.42187506 0.3089433 -0.18535045
000350 b3 59 31 3e 54 12 1d be 22 a9 f8 3e 27 20 a9 be
       0.17319374 -0.15339023 0.48566538 -0.33032343
000360 da 9a 06 be e9 45 12 be c6 71 04 3e 86 2a 95 3d
       -0.13145009 -0.14284481 0.12934026 0.07283501
000370 f5 19 e8 3d 75 9b af 3b fe fc dd be f5 58 0a 3e
       0.11333076 0.005359108 -0.4335708 0.13510497
000380 94 b0 a9 be 0a ba 1f be 55 54 8c 3e 58 41 f1 3d
       -0.3314253 -0.15598312 0.2740809 0.117800415
000390 29 e7 a0 3d 23 66 0e 3e 84 06 ba bd da e1 fb 3d
       0.0785659 0.1390615 -0.09083274 0.12298937
0003a0 96 90 92 be e5 0a dc 3e 5a 48 b7 be 57 92 8c 3e
       -0.28625935 0.42977062 -0.35797387 0.27455398
0003b0 73 5d 06 3f e6 7f 9d be 3b 21 a4 3e 7a 46 fd 3e
       0.5248634 -0.3076164 0.32056603 0.49467832
0003c0 9c e7 93 3e 2c 01 24 3d f4 90 77 be c1 51 bd be
       0.2888764 0.04004018 -0.24176389 -0.36976436
0003d0 b4 ac 2e 3e 5e 03 2f 3e 24 07 0c 3f 18 a5 c8 3d
       0.17058069 0.17091128 0.54698396 0.09797114
0003e0 24 70 ec bd ab 04 b1 3e 28 fd 76 3c 59 aa 7c be
       -0.115448266 0.34573874 0.015075006 -0.24674357
0003f0 0e c5 d5 be c7 31 8e 3d cd 4a 00 bf 01 61 be bd
       -0.41751903 0.06943088 -0.50114137 -0.09295846

decoder.weight_hh_l0 f4 [20, 5]
000000 61 9c 0e be 47 01 f5 3d e2 eb d2 be e0 37 9b 3d
       -0.13926841 0.11963134 -0.4119559 0.07579017
000010 4c 59 78 3e 20 24 4b bd 05 06 16 3d 0c ee 7e be
       0.24252814 -0.049595 0.036626834 -0.24895495
000020 87 bf d7 3e 20 3c 8f 3d 4c 03 ef bd a2 24 2f be
       0.4213831 0.0699389 -0.11670551 -0.17103818
000030 ce 1d d9 be 7b 5d c2 3c 36 3f df 3e 76 d0 dd 3c
       -0.42405552 0.023726216 0.43602914 0.027076941
000040 9c 45 13 be 03 41 8d be 84 32 54 be 52 f8 05 3f
       -0.14382023 -0.27588663 -0.20722395 0.5233203
000050 55 57 a6 3e dc 14 77 3e 8f 7a d0 be a0 4f c2 3c
       0.32488504 0.24129051 -0.40718505 0.023719609
000060 9f 95 65 3d 08 74 81 3e 59 fb 84 be 2a 4c e9 bd
       0.056050893 0.25283837 -0.25973013 -0.1139148
000070 82 83 6b 3d 40 a5 74 be a0 02 99 be d1 93 bc be
       0.057498462 -0.23891163 -0.29884815 -0.36831525
000080 cf 3f 45 be 6f 38 52 3e cd a8 86 bd f4 52 82 be
       -0.19262622 0.2052934 -0.06575165 -0.25453913
000090 d7 fa af be dd c1 2e 3e 13 6c df 3d c9 87 ee bd
       -0.34371063 0.1706614 0.109092854 -0.11646993
0000a0 64 0f 83 3e 95 ed f0 bc 8e 9a a9 be cf 53 77 3d
       0.2559768 -0.029410163 -0.33125728 0.06038266
0000b0 3c 33 d9 be a9 27 d8 be 42 87 0b bf 94 48 b4 3e
       -0.424219 -0.42217758 -0.5450326 0.35211623
0000c0 1a d8 8e be 4b 8b 1a 3e b1 a1 a9 3e af 6a 04 3e
       -0.27899247 0.15092199 0.33131173 0.12931322
0000d0 7b d4 82 3e 5e 4a 4c 3d 8c b3 79 be 94 b3 de 3e
       0.25552735 0.04987561 -0.24384898 0.43496382
0000e0 88 cb 86 be 26 53 ba 3e 62 eb d6 be 85 86 f3 bd
       -0.26327157 0.36391562 -0.41976458 -0.11890892
0000f0 9f d8 85 3e 2d 45 bb be 9a 0f 50 be a4 ba 34 be
       0.2614183 -0.36576214 -0.20318452 -0.17649323
000100 72 39 83 bd 37 27 25 be 35 1c 99 3d b4 97 06 bf
       -0.06407441 -0.1612824 0.07476083 -0.5257523
000110 8c 9d d8 bd fa ff f2 bd f7 c0 8f 3e 3a fd b9 be
       -0.10576925 -0.1186523 0.28076908 -0.3632601
000120 7e 28 a5 3e f6 96 32 be 8e 80 80 3e 18 4a ae 3e
       0.32257456 -0.174404 0.2509808 0.34040904
000130 29 69 03 be 9b 27 d5 3c 1a f2 9c 3e 70 11 af 3e
       -0.12833084 0.026019862 0.3065346 0.3419299
000140 a6 3f 16 3e 72 d3 97 3e a7 5e 95 3e 2a 99 85 3b
       0.14672717 0.29653507 0.29173777 0.0040770965
000150 76 33 c9 be 87 b8 e4 be 3a 46 b4 3a a1 fc d7 bd
       -0.39297074 -0.44672033 0.0013753839 -0.10546232
000160 6e 08 a2 3e 29 33 e5 3e b1 94 4a bd 94 9c b1 3e
       0.31647056 0.44765595 -0.04945821 0.34689772
000170 86 ac bc be bf a5 1a be 28 3d f2 3d fe d1 35 bc
       -0.36850375 -0.1510229 0.11828071 -0.011097429
000180 d2 66 12 be 70 96 fe 3e d3 bb 2c 3e 19 b9 87 3e
       -0.14297035 0.4972415 0.16868524 0.26508406

decoder.bias_ih_l0 f4 [20]
000000 4b db d4 3e f0 8b aa be 25 61 7f bd be 19 20 3e
       0.41573557 -0.3330989 -0.062348504 0.1563482
000010 dd 08 ce 3d 27 c1 dc 3e cc 80 5a bc 66 ac 9a 3e
       0.10060284 0.43116114 -0.013336372 0.30209655
000020 4a ef b7 be 47 90 62 3e e2 15 1e be 39 f8 1e be
       -0.3592475 0.2212535 -0.15438035 -0.15524377
000030 16 c2 5e 3e a1 22 3b be 0e 04 d9 3d f9 24 f9 3d
       0.21753725 -0.18274929 0.105964765 0.12165255
000040 5d cc 89 be f8 c2 3a be 4f 7a d9 bd 94 fc 1e be
       -0.2691373 -0.18238437 -0.10619032 -0.15526038

decoder.bias_hh_l0 f4 [20]
000000 a3 50 9e be c6 85 cd 3d fc 00 54 be 48 d0 86 be
       -0.30920896 0.10035281 -0.207035 -0.2633078
000010 7c bf 72 3d bf c9 17 3e e2 19 28 be 65 31 d4 3e
       0.059264645 0.14823054 -0.16416124 0.41443935
000020 5a fc aa 3e 89 6f d9 bd 96 22 f8 bd 99 c9 6c bd
       0.33395654 -0.10616977 -0.12115972 -0.057809446
000030 8f 10 94 be 03 6d 42 3e 16 99 aa 3d b6 86 60 be
       -0.28918883 0.18986897 0.0832998 -0.21926388
000040 76 c1 23 3e 7e 24 9f bc 33 a6 9f be 61 d5 fb bd
       0.15991768 -0.01942658 -0.31181487 -0.12296558
