lstm_autoencoder.pth (torch, 26763 bytes, 8 tensors)

encoder.weight_ih_l0 f4 [128, 5]
000000 8f 44 bd bc 5e ae 28 bc 42 6b 09 be 1f 85 d3 bd
       -0.02310398 -0.010295479 -0.13419822 -0.10328125
000010 8d 8a 52 bd d6 c7 05 3e ac e7 dd 3d 46 33 5a bd
       -0.051401664 0.13064513 0.108352035 -0.053271554
000020 e8 ce bf bd e0 bd d9 3c c8 26 47 3e 7c 41 30 3d
       -0.09365636 0.026579797 0.19448388 0.0430312
000030 c5 cd 9d 3b d4 a7 ac bd e8 e1 a3 3d e2 91 f4 3d
       0.0048157894 -0.08430448 0.080020726 0.119418874
000040 d4 bd 97 3d fe 1d df bd 79 2c 12 3e 9c 26 22 3e
       0.07409254 -0.108943924 0.14274777 0.15835041
000050 b0 99 40 3d 36 81 a7 3c 46 96 6d 3d ef 5b 1e 3e
       0.047021568 0.020447355 0.05800464 0.15464757
000060 f7 8f b6 bd 97 8e 7a 3d 4b 2d 27 3e 57 9a 09 3e
       -0.08914178 0.06117114 0.16325872 0.13437782
000070 3a 77 8e 3d 53 31 27 bd 06 b0 6b bc e0 d5 02 3e
       0.069563344 -0.040818524 -0.014385229 0.127769
000080 fa 9c d1 bd 8c a4 3a bd 45 07 d5 bd d3 7b 22 3d
       -0.10235019 -0.04556708 -0.10401777 0.03966887
000090 dd 5e 86 3d 22 00 7c 3d c5 56 52 bd 58 bf 69 be
       0.065610625 0.061523564 -0.05135228 -0.22826898
0000a0 98 31 69 bd 84 30 7e 3d 4d 65 c7 bd 0a c7 58 3e
       -0.056932062 0.062057987 -0.097361185 0.21169677
0000b0 dd e5 dd bd 6f 34 b7 3d e5 61 13 3d 85 8a 21 be
       -0.108348586 0.08945548 0.03598203 -0.15775497
0000c0 4b cb 12 bd 66 44 8f bb cc f6 71 bd d1 b5 1a be
       -0.035838407 -0.0043721674 -0.059073254 -0.1510842
0000d0 64 bb c7 bc c6 ba 21 3e ac b7 ad bd 91 40 06 bd
       -0.024381347 0.15793905 -0.08482298 -0.03277642
0000e0 e0 27 df bc c4 69 6b 3e 29 55 5b be 70 30 df bd
       -0.027240694 0.22989565 -0.21419205 -0.108979106
0000f0 0c 96 15 3e f5 13 d8 3d 92 30 ae bd 95 73 6f bd
       0.1460802 0.105506815 -0.08505358 -0.058459837
000100 bc 8b fa bc 9c fd 99 bd 78 47 74 bd 50 aa 77 bd
       -0.030584209 -0.07519075 -0.05963847 -0.060465157
000110 12 b4 e1 bd c8 2c 56 3d fd 67 1c bd 8d 87 05 3e
       -0.11020674 0.0522888 -0.03818511 0.1303999
000120 93 25 ce 3d 23 c7 1d be 52 9c 87 3d df 97 98 bc
       0.100657605 -0.15407996 0.066216126 -0.018627105
000130 a5 e9 45 be c2 62 79 be 5c df 24 3d 91 1d 0e be
       -0.1932741 -0.2435408 0.040252075 -0.13878466
000140 f1 19 cb 3d 84 e7 95 3e 63 3b 69 3e 3d 8c 4a be
       0.09917057 0.29278195 0.2277656 -0.19780059
000150 1f 71 84 3d 55 4d 1f bd f5 cd 55 be 0e 93 22 bd
       0.06466889 -0.03889211 -0.20879348 -0.039691024
000160 ca 40 ad 3d 71 ec df 3d 64 6f 4e 3d 5d 6e b6 bd
       0.08459623 0.109337695 0.0503992 -0.08907769
000170 07 4d 02 3e d7 00 a9 bd e6 03 4a bd 9f 24 5b bd
       0.12724696 -0.08252113 -0.049320124 -0.05350172
000180 80 0d 29 be c9 94 6a be ec 82 3a bb 76 3b 46 be
       -0.16509056 -0.2290832 -0.0028459383 -0.1935862
000190 2f e3 6b 3d 77 5d be bd 2a 9a 04 3e 79 91 5a 3d
       0.057589706 -0.09295171 0.12949434 0.05336139
0001a0 6d 17 8b ba 74 a7 1f 3e fe 09 d6 bd ae ea 2f bd
       -0.001061184 0.15591222 -0.104511246 -0.042948417
0001b0 ff ee f6 bd a1 1d 80 3d 05 ac b4 bd f5 da 96 3b
       -0.12057304 0.06255651 -0.088218726 0.0046037384
0001c0 8b 2c 11 3b f0 cd 45 be 00 2e ce 3d e3 a0 2f be
       0.0022151794 -0.1931684 0.100673676 -0.17151217
0001d0 bb 38 1e 3d 4e b4 cb 3d 7f b4 3b 3c 92 35 73 bc
       0.03862832 0.099465 0.011456608 -0.014844315
0001e0 76 58 26 3e 38 c7 11 3d f3 e0 26 3d 47 77 01 3d
       0.16244683 0.03559038 0.040741872 0.031607892
0001f0 32 f1 38 3d 45 00 22 3d e9 c2 94 3d 55 a4 c9 bc
       0.045151897 0.03955104 0.07263739 -0.024614492
000200 39 83 5f bd e6 de 38 bc 02 55 11 3e b9 55 a7 bc
       -0.054568503 -0.011283612 0.14192584 -0.020426618
000210 5c a9 43 3e b8 ea 28 be 1f 7a 4c be 35 c4 d8 3d
       0.19107574 -0.16495788 -0.1996846 0.105842985
000220 9c 8e d0 3d 8e 13 cb 3d 68 6a b7 3b a4 91 41 be
       0.101834506 0.09915839 0.0055974014 -0.18903214
000230 6f 9e 2f be d4 c2 89 3d 58 ea db 3d ee 33 4c 3e
       -0.17150281 0.06726614 0.10738057 0.19941685
000240 2e 04 89 bd 7f d9 96 3d 54 2c 1d bd b8 73 e1 3d
       -0.0669025 0.07365703 -0.038372353 0.110084
000250 ec 80 26 bd 2f ec 65 bd ae eb f4 bd dd fb db 3d
       -0.040650293 -0.056133445 -0.11959015 0.107413985
000260 4d f1 6c 3c 94 d5 f7 bd fa e1 1b 3d 6d e1 5e be
       0.014461827 -0.12101284 0.038057305 -0.2176568
000270 22 12 1b be 30 f5 79 bb 16 de df bd 5e 4d c0 3c
       -0.15143636 -0.0038140528 -0.109310314 0.023474392
000280 a1 79 71 3d ea 1e e0 3d 71 19 36 bd b4 58 19 be
       0.058953885 0.109433964 -0.044457857 -0.14975244
000290 1c 18 6c bc 4a 4c 5f 3e 17 26 26 3d d1 4a 56 3d
       -0.014410045 0.21806446 0.04056367 0.052317444
0002a0 dd c4 c3 bc d4 4e c3 3d 70 d9 34 bc bc 0d c1 3c
       -0.023897583 0.0953652 -0.011038169 0.02356612
0002b0 5a 9e b5 3d 7e c0 86 be a7 d1 72 3e cd 91 34 3e
       0.08868094 -0.26318735 0.23712789 0.17633744
0002c0 cd 89 1a 3e 50 82 92 bd 61 ac 8e 3d 12 8b f0 3d
       0.1509163 -0.071537614 0.069664724 0.117452756
0002d0 db 4a 4c bd 80 f7 8a bd e8 ea 34 3e 65 f0 de 3d
       -0.049876075 -0.06785488 0.17667735 0.10885695
0002e0 e6 0e 8c 3a b3 de b4 3d fc 6c 9e 3c 06 5c 49 bd
       0.0010685592 0.08831539 0.019339077 -0.049160026
0002f0 e1 50 46 be fb 04 08 3e b6 c0 df bd a8 87 42 3e
       -0.1936679 0.1328315 -0.109254286 0.18997061
000300 4b 4e 65 3e 07 0d 2b be 3c d5 a2 bc 14 e2 28 3c
       0.22393148 -0.16704188 -0.019877069 0.0103078075
000310 96 04 87 be 72 ff e1 bd e8 a8 63 3e 2e 00 18 3e
       -0.26370686 -0.110350505 0.22232401 0.14843819
000320 cc b7 22 be c8 33 86 bd 80 29 e3 bd 7f 7e 82 3e
       -0.15890425 -0.06552845 -0.110919 0.25487134
000330 fc 53 18 be 91 1b 34 3b 23 50 44 bd 5e 2f 80 be
       -0.14875787 0.0027482251 -0.047927987 -0.25036138
000340 db c1 b1 3d c9 00 7d 3d be 27 7d be f4 76 e6 bd
       0.08679553 0.061768327 -0.24722192 -0.11253157
000350 8b 62 6f 3b d6 f4 41 3d 25 66 a3 be 1f e5 a2 3a
       0.0036527242 0.047352634 -0.31913868 0.0012427903
000360 6c 0d ee bc 3d f7 93 3d 7f e3 6a bd 18 5f 48 3d
       -0.029059134 0.07224891 -0.057345863 0.048918813
000370 88 95 01 3e 20 ed 85 bd bc a5 c1 3c ea 66 26 be
       0.12654698 -0.06539369 0.023638599 -0.16250196
000380 51 8c c2 bd be 84 68 3d 5a e4 b0 3b 19 be 8c 3e
       -0.094994195 0.056767218 0.0053983154 0.27488783
000390 59 09 bb bd 2d 82 a2 3d fb df e6 bd cd 88 5e 3e
       -0.09132642 0.07934985 -0.1127319 0.21731873
0003a0 ac 0c 1f 3d e2 dd 5d be 4d ee eb bd 5c 02 96 bd
       0.038830444 -0.21666673 -0.11520062 -0.07324669
0003b0 8f 2c 46 be e6 70 0f be e5 36 52 3e 57 47 cd 3c
       -0.19352935 -0.14007911 0.20528753 0.025058432
0003c0 71 43 52 bc f0 63 07 3e d8 a9 00 3e af a0 5f be
       -0.012833462 0.13221717 0.1256479 -0.2183864
0003d0 bc 90 0f 3d df 98 63 bc 64 e0 cc bd 53 9c 7b be
       0.03505014 -0.013891428 -0.100037366 -0.24571352
0003e0 56 22 95 bd d5 65 a8 bc 03 2c df 3d 8a f7 28 3e
       -0.0728194 -0.02055637 0.108970664 0.16500679
0003f0 3c 7c b1 3c 77 5d ba bd c8 a4 a4 bd 12 80 2a be
       0.021665685 -0.09099858 -0.08039242 -0.16650417

encoder.weight_hh_l0 f4 [128, 32]
000000 37 b2 78 bd 3e 16 3c be 14 35 08 bd 93 a6 c4 3c
       -0.060716834 -0.1836786 -0.033253744 0.02400521
000010 4d 0c 93 bd 85 f9 5c 3e fb 99 da bd a5 19 fb 3d
       -0.071800806 0.21579559 -0.10673901 0.12260751
000020 c1 c5 1c bd 3a e3 00 3d f0 f8 6d be 1a 3c e6 3d
       -0.03827453 0.0314667 -0.23239493 0.11241932
000030 0d e7 33 be ae 63 ea bd 98 58 f6 bc 48 e2 63 bd
       -0.17568608 -0.11444794 -0.030071542 -0.05563572
000040 4d 56 fd 3d 25 6f 4b 3e fb 2d 28 be 3c 8d 6f 3e
       0.12369976 0.19866617 -0.1642379 0.2339372
000050 80 dc 42 be 28 75 d7 3d c8 49 cc 3c 45 fa 16 be
       -0.19029427 0.10520393 0.024937525 -0.14743908
000060 9b 81 7f 3d a1 cd 53 3d 89 a3 4b 3e d7 8c 58 bd
       0.06237946 0.051709775 0.19886602 -0.05286869
000070 9f 47 8e 3d 0d 97 07 be 5f 05 17 3e 50 3a 2e be
       0.069472544 -0.13241215 0.14748143 -0.17014432
000080 20 07 e0 3d 26 b1 30 be 22 70 1d be bd cc 8e 3e
       0.10938859 -0.17255077 -0.15374807 0.27890578
000090 eb a4 c6 3c fd 32 fa 3d 37 6b a9 bd 0a 95 de bd
       0.02424856 0.122167565 -0.08272403 -0.10868271
0000a0 13 18 b2 3e a5 7d 0d 3e 6a a0 6b 3e 52 56 29 3e
       0.34783992 0.13817461 0.23010412 0.16536835
0000b0 ba 53 af 3d f4 c5 45 bc 29 ef fe 3d 79 de 29 bd
       0.085608914 -0.0120711215 0.1244796 -0.041471932
0000c0 f7 f5 7f be 13 0a 72 be 78 7e b4 bd b6 8b 78 3d
       -0.24996172 -0.23636656 -0.088131845 0.060680114
0000d0 3d 03 69 be 52 9f 1a 3d a6 db 03 3d db 09 cb 3d
       -0.22755142 0.037749596 0.032191895 0.09913989
0000e0 97 f7 55 be 4b 91 24 be 36 b7 f7 3c b4 81 1f 3e
       -0.2089523 -0.1607105 0.030238729 0.15576822
0000f0 12 bb 99 bd 70 e0 a2 3d 73 01 5c 3d 95 92 bf bc
       -0.07506384 0.07952964 0.05371232 -0.023385325
000100 be 8c 83 3c f3 f7 32 3d 25 54 9c bd a8 d7 66 bd
       0.016058322 0.043693494 -0.07633237 -0.05635801
000110 cb 0b 07 3e 2e 5e 28 3e 31 25 e4 3d 06 9d 0d 3d
       0.13188092 0.16442177 0.11139906 0.034573577
000120 71 db f4 3d f9 12 38 3e 09 a5 97 3e a9 4d 32 3e
       0.119559176 0.17975987 0.296181 0.17412437
000130 db 65 14 be a7 76 c0 3c a1 b6 9f 3d 27 fe a3 bd
       -0.1449198 0.023494078 0.077985056 -0.0800746
000140 7c da fa bd ee b5 b8 bd 64 98 22 be f5 46 74 be
       -0.12248704 -0.09019075 -0.15878445 -0.23855193
000150 ab 48 30 3d cc c9 72 bd 96 d3 f7 3d 17 b8 2a 3d
       0.04303805 -0.05927448 0.12100904 0.041679468
000160 f2 47 39 be a0 a9 a9 3d e6 6f e7 3c c9 e9 1c bd
       -0.18093851 0.082843065 0.0282516 -0.038308892
000170 5e 71 76 be 25 54 09 bb 35 71 21 3c 30 00 a8 bd
       -0.24066684 -0.0020954695 0.009853651 -0.08203161
000180 51 e3 68 bd 2c 13 40 bd d4 0c 4f be 64 ff 29 bd
       -0.05685741 -0.046893284 -0.20219737 -0.041503325
000190 60 20 72 3e 21 c6 d0 bd a9 9b 32 3d 1c c8 d3 3d
       0.23645163 -0.1019404 0.04360548 0.10340902
0001a0 00 10 6e be 1b d3 58 3e 3e 40 8f bd 15 c7 1a 3e
       -0.23248291 0.2117428 -0.06994675 0.15115006
0001b0 dc 93 59 bd 33 dc f4 bd 05 8b 1b 3e 7c d3 1b bd
       -0.053119525 -0.11956062 0.1518975 -0.038043484
0001c0 3e c8 4b be d1 29 b4 3d af 51 4d 3d 4c 02 9c 3d
       -0.19900605 0.08797038 0.050126728 0.076176256
0001d0 e8 cc 62 be e9 ed 97 3d b0 87 44 bd 56 d0 20 3d
       -0.22148478 0.07418425 -0.047980964 0.039261185
0001e0 1b 01 a4 bd 1c b4 ab bd 6e 2d c3 3c 08 9b 99 3d
       -0.08008023 -0.083839625 0.023825374 0.07500273
0001f0 f1 a9 11 3e f7 fa 95 bb 18 64 a8 3d 93 68 3b bd
       0.14224984 -0.0045770365 0.08222216 -0.045754027
000200 fb 0d ec bd af 62 95 bd c1 8f 25 be f4 36 3a be
       -0.11526104 -0.07294213 -0.16168119 -0.18185025
000210 c0 85 1d 3d 5f 0c bc bc 35 ed 75 3e e9 e7 cb 3c
       0.038457632 -0.022955118 0.24016269 0.024890857
000220 57 43 00 be 98 cc 91 be 42 5d bd bd 53 06 ba 3c
       -0.12525688 -0.28476405 -0.09246303 0.022708094
000230 b1 47 2e be a0 a6 72 3c 39 24 4c 3c d0 e9 10 bc
       -0.17019536 0.014810234 0.012459808 -0.008844808
000240 22 c7 64 3e 17 39 3f 3e fb 52 60 be d8 f4 b0 3d
       0.22341588 0.18674122 -0.21906655 0.0864045
000250 9e 21 28 be 87 bc 3f bd c3 6d 4b 3e e0 b8 6d be
       -0.16419074 -0.046810653 0.1986609 -0.23215055
000260 5b 25 22 be 47 7f 4d be 26 af db 3d 1d e0 30 3e
       -0.15834562 -0.20068084 0.10726766 0.17272992
000270 a0 43 ff 3a d0 72 bc bc 60 5d 8c 3d 15 29 b5 bb
       0.001947511 -0.023003966 0.06853747 -0.005528579
000280 29 2d e7 bd 57 71 49 be 1a a4 18 3e 56 cf 55 3d
       -0.112879105 -0.19672142 0.1490635 0.052199684
000290 36 02 e8 bd 71 c0 55 3e 39 73 88 bd 0d 7f 13 3e
       -0.11328547 0.20874192 -0.06662602 0.14403935
0002a0 9a 76 26 3e 6a 1e 78 3d 69 54 d7 3c 74 4a 85 3d
       0.1625618 0.06057588 0.026285367 0.065083414
0002b0 74 23 01 be e9 fa a0 3d 30 26 00 3e 99 c0 03 be
       -0.1261118 0.07860357 0.12514567 -0.12866439
0002c0 d2 5e de bd 65 dd 0d bd 98 33 3a be 9e 67 dd bd
       -0.10857929 -0.034634966 -0.18183744 -0.10810779
0002d0 af f4 26 3e c6 37 18 3d 22 ff 56 bc 05 c2 b1 3d
       0.16304277 0.037162565 -0.013122352 0.086795844
0002e0 db df 22 3e 27 6e fe bd 85 b2 3b be 0c bd 5b 3d
       0.15905707 -0.12423354 -0.18329819 0.053647086
0002f0 8e f6 a1 bd 5d 64 b3 bd 0f 10 1a 3c 92 4b 71 bd
       -0.07908355 -0.08759377 0.009403243 -0.05890996
000300 c0 1f 10 bd 07 b5 d6 bd 04 e2 67 bd bf 4e ad 3d
       -0.03518653 -0.10483747 -0.05661203 0.08462285
000310 d7 fd 25 3e 97 3d f6 3d 96 5f 61 3e 46 41 93 be
       0.16210113 0.12023466 0.2200912 -0.28760737
000320 ec 4f cc 3c 8d d5 9b bd 56 6a 81 3e ee 5f 8d 3d
       0.024940453 -0.07609091 0.2527644 0.06903063
000330 b5 8b b5 3d da dc e9 bd bd 85 39 bd 3f 9e 4e 3e
       0.088645376 -0.11419077 -0.04529356 0.20177554
000340 ac 6e c6 3d f1 b4 71 be 18 e7 1a be 27 5e 07 be
       0.09689078 -0.2360418 -0.15127218 -0.1321951
000350 ad da 09 be 23 a3 80 3e fb b8 93 3d 29 2c 4b 3e
       -0.13462324 0.25124463 0.072130166 0.19841065
000360 ae 55 39 bd c7 11 27 bd 91 2c a7 bd b6 2b 41 3e
       -0.045247726 -0.04078844 -0.08162797 0.1886433
000370 8c 54 57 be 6b a8 31 3a c2 e8 8c 3e f7 31 1e 3e
       -0.21028346 0.00067771104 0.2752133 0.15448748
000380 5c f9 c8 bd c6 34 a5 bd bd 41 a2 3d 10 73 4d be
       -0.098131865 -0.08066706 0.07922695 -0.20063424
000390 ba a2 18 3e 2b e1 2a 3b c8 48 02 be a0 d3 66 3e
       0.14905825 0.0026074152 -0.12723076 0.22541666
0003a0 38 c0 47 be 09 cb e8 3d 72 da 6b be c6 49 5b be
       -0.1950692 0.11366851 -0.23032549 -0.21414861
0003b0 2e 4e fd bc 6e 63 98 bc 13 f3 36 3d b4 18 98 be
       -0.030921068 -0.0186021 0.044665407 -0.29706347
0003c0 a6 18 1c 3c d6 75 f8 3d 25 b2 66 bd bd 22 9c 3d
       0.009527361 0.121318504 -0.056322236 0.07623813
0003d0 63 ee bb bd bc 03 89 bd 1f 37 38 be 1d ad 68 3d
       -0.09176328 -0.066901654 -0.17989777 0.05680572
0003e0 ec c4 30 be f6 6b 8d 3c 76 d6 08 3e 56 25 03 3e
       -0.1726262 0.017263394 0.1336306 0.12807211
0003f0 d3 d0 f4 3d 6a 59 67 bb 47 42 2e bc e6 ec 8c 3d
       0.119538926 -0.0035301098 -0.010635919 0.06881122

encoder.bias_ih_l0 f4 [128]
000000 74 57 38 bd db 4d 58 3d fb 09 08 be e6 0d f0 3c
       -0.045005277 0.052808624 -0.13285057 0.029303502
000010 a5 7d 77 3d 58 99 7c bd 96 ee 1b bd de 58 28 bd
       0.06042256 -0.061669677 -0.03806933 -0.041100375
000020 bf ac 03 3e 16 95 bb bd 55 6c 74 3b a9 6d 8c 3d
       0.12858866 -0.09159295 0.0037296016 0.068568535
000030 9d 7d a1 bd 4d 13 be bd 4b 5a 5a 3c 48 06 ff bd
       -0.07885287 -0.09281025 0.013327192 -0.1245237
000040 a1 b3 6d bd 32 93 03 be ac b4 b0 bd 01 34 94 bd
       -0.058032636 -0.1284912 -0.086282104 -0.072364815
000050 85 ad fb bd 16 b7 0c be 2c fd 51 bd 99 e9 a2 bd
       -0.122889556 -0.13741717 -0.051266834 -0.079547115
000060 a6 18 84 bd 98 e7 c1 3d d3 15 e4 bc 09 c4 48 bd
       -0.06450014 0.09468001 -0.027842438 -0.04901508
000070 0e c3 ac 3c b2 05 90 bb cf dc a8 bd a9 89 dd 3d
       0.021089103 -0.00439521 -0.08245241 0.10817272
000080 8b 8d 2c 3d 6f b0 97 bd a0 47 a3 bd d5 7a ad bd
       0.042127173 -0.07406699 -0.07972646 -0.08470694
000090 b5 e8 8b bd 01 6e fd bd 02 e0 ce 3d f6 9a 74 3e
       -0.06831495 -0.12374497 0.1010132 0.23887238
0000a0 2d 87 0b 3c 84 5e eb 3c 24 cd 46 3b 8d 5a 36 3b
       0.008516115 0.028731592 0.0030334676 0.0027824969
0000b0 f4 a6 03 be 45 0b 08 3e 59 95 f5 bc 12 97 9e 3d
       -0.12856656 0.13285549 -0.029978441 0.07743658
0000c0 ac 4e 64 3e 2a fe 5c 3d 4b a2 14 3e 23 89 17 3d
       0.22295636 0.053953327 0.14515035 0.03699602
0000d0 7f f9 d6 bd 18 35 5e 3e 8d 1e 08 3d 5e 68 03 3e
       -0.10496806 0.21699941 0.03323226 0.12832782
0000e0 b6 87 f8 3d c0 5c 07 3c 29 28 77 3c 9a 9e 69 3d
       0.1213526 0.008261859 0.0150852585 0.05703602
0000f0 db 14 86 3d cf 89 9d bd 0f 42 47 3e 46 28 72 bd
       0.065469466 -0.076923005 0.19458793 -0.05912044
000100 3c 4b 3f 3e 28 eb dc 3d 79 fe 42 3e 13 68 11 3e
       0.18681043 0.1078704 0.19042386 0.14199857
000110 ab f4 dc 3d f9 aa 24 3e ee fc 54 3e 18 ff a7 3c
       0.10788854 0.16080846 0.2079961 0.02050738
000120 aa 15 da bd 73 10 df 3d a5 4e 1b 3e 9b 95 7e bd
       -0.10648663 0.10891809 0.1516672 -0.062154394
000130 8d 20 21 be 76 72 3d be 3c 12 19 3e f9 d8 13 be
       -0.15735073 -0.18500695 0.14948362 -0.14438237
000140 67 b4 13 3d f2 83 9a 3d f3 5d b8 bc 70 0c 18 3e
       0.036060717 0.07544698 -0.022505736 0.14848495
000150 61 2b 9e 3c 97 be f2 bc 1f 1c ee bd fd 6a ba bd
       0.019307794 -0.029631896 -0.116264574 -0.09102438
000160 ea 78 2d be 50 2d ad bd 04 90 93 bd 18 c0 61 bd
       -0.16940656 -0.08455908 -0.07205203 -0.055114836
000170 96 26 3a 3d 98 32 f7 bd 11 1e b9 bd e8 0c bc bd
       0.045446955 -0.12070197 -0.09038938 -0.09182149
000180 5c 15 20 3c 8a 0b 8b b9 ba 28 6d bd 96 27 21 3e
       0.0097707175 -0.00026520743 -0.057900168 0.15737757
000190 6e 4b 25 3e 5e b9 b0 bd 96 46 9f 3d bf 30 8e 3b
       0.16142055 -0.08629106 0.07777135 0.004339307
0001a0 36 49 51 3e 96 38 80 bd 72 d2 69 3e 09 c3 24 3e
       0.20438084 -0.06260793 0.22834185 0.16090025
0001b0 54 fc 32 be ce 5f e5 bd c4 93 18 3e 0b f2 d9 3d
       -0.17479068 -0.11199914 0.14900118 0.10641869
0001c0 86 f4 1e 3e 0f 16 1b ba 80 b7 b2 3d 76 a4 fe 3d
       0.15522966 -0.0005916068 0.08726406 0.12433712
0001d0 e1 67 40 3e a1 2d a0 3d 54 3f 1c 3e 57 2c f3 bc
       0.18789627 0.07821203 0.15258533 -0.029684229
0001e0 5c 4f d0 3d ad e7 e5 3c 7e 67 a5 bd eb b9 80 bd
       0.101713866 0.028064573 -0.0807638 -0.06285461
0001f0 d3 ad 14 3e a1 13 eb 3d fd 5c b9 bd 69 3d 74 3e
       0.14519434 0.11478353 -0.09050939 0.23851551

encoder.bias_hh_l0 f4 [128]
000000 7f a9 9d 3d c2 28 23 3c ac 8a 02 bd 4f ae 45 3e
       0.076983444 0.009958448 -0.03187053 0.19304775
000010 09 03 19 3e 7b 54 e3 bd 66 ba 2a 3e 2a c8 13 bd
       0.14942564 -0.11100098 0.16672668 -0.036079563
000020 6a 98 9b bd d3 53 1f bd 61 c5 b1 bd 12 cd 1c 3e
       -0.0759743 -0.0388983 -0.08680225 0.15312603
000030 4d 70 d6 3d 82 cc b6 3c 16 4a 70 3d c7 20 f0 bd
       0.104706384 0.022314314 0.058664404 -0.11725002
000040 51 2d fe 3d 34 c0 e3 bc b7 6d 00 bd 66 ae a5 3d
       0.12410987 -0.02780161 -0.031354632 0.080899045
000050 f2 9b 44 3e b9 f7 8b bc e9 ec 09 be 0e 98 0a 3e
       0.19200113 -0.017085897 -0.1346928 0.13534567
000060 f0 65 13 be 3a 53 29 3e d9 e1 32 bb c2 8f 20 3e
       -0.14394355 0.16535655 -0.002729526 0.15679839
000070 f8 e4 67 3d d3 74 13 3b b3 c7 81 bd 74 38 98 bd
       0.056614846 0.0022500053 -0.06336918 -0.074326426
000080 e8 96 51 bd 0e fc 83 bc 7e e6 c0 bd 6d 51 60 bd
       -0.051169306 -0.0161114 -0.09418963 -0.054765154
000090 05 90 d5 3d 1f 09 f6 bd a8 5e 24 3e 38 92 13 3e
       0.1042786 -0.120134585 0.16051733 0.14411247
0000a0 f3 fe e0 3d 33 df 04 bc 52 92 47 3e 30 b7 0c 3e
       0.10986128 -0.008109855 0.1948941 0.13741755
0000b0 41 ee 9b bd 21 9f 57 3d 3e b0 af bd 71 f7 7e bb
       -0.07613803 0.05264199 -0.085785374 -0.003890481
0000c0 98 99 37 3d 23 16 d9 3b 9b 82 c0 bd 9f 21 66 3d
       0.044824213 0.0066249534 -0.09399911 0.056184407
0000d0 2c 11 92 3d 3b c6 eb bd 76 ee a1 bd 08 35 03 3e
       0.071321815 -0.11512419 -0.07906811 0.12813199
0000e0 df 9f 0a 3c f3 08 ec bd 69 0d 28 3e ad 05 ed bc
       0.008460968 -0.115251444 0.16411366 -0.02893337
0000f0 6e f3 34 3e 4f b6 8e bd b3 06 62 3e 27 1a 58 bd
       0.17670986 -0.06968366 0.22072868 -0.052759316
000100 9d 54 24 3d 29 63 95 3d ca f8 a1 bd 97 9a 40 bb
       0.040119756 0.07294304 -0.07908781 -0.0029389018
000110 3b a3 0c 3e c4 ab 22 3d 05 a2 13 3e 5e 23 d7 3d
       0.13734142 0.03971459 0.14417274 0.10504793
000120 70 6d 03 3e 78 83 c0 bd 68 0d eb bd bb 6a 0d 3e
       0.12834716 -0.09400076 -0.114771664 0.13810246
000130 dc 57 ee 3d cd b5 50 3c 18 e9 25 3e 57 a2 18 3e
       0.116378516 0.012738657 0.162022 0.14905678
000140 de a6 ac 3d c7 c0 5c 3d 36 9a b0 3c c1 db 0e bc
       0.08430265 0.053894784 0.021557909 -0.008719386
000150 9f a4 dd bd b1 86 ba bc 13 1f fe bb 5d 07 bf bd
       -0.108224146 -0.022769304 -0.007755169 -0.09327576
000160 9f 41 2e be 8f e3 30 3e 99 0f 2c 3e 64 93 45 3d
       -0.1701722 0.17274307 0.16802825 0.048236266
000170 97 01 1d bd 72 59 f3 bd d5 2c 4a bd b7 fd 1d bd
       -0.038331594 -0.11882295 -0.04935916 -0.03857204
000180 87 dc 98 3c 66 c4 41 3e 43 1b 3c 3e 2f ea 57 3e
       0.018659843 0.18922576 0.18369775 0.21085428
000190 a1 99 77 3e 63 41 0e be a0 7a 50 3e 20 00 3c bd
       0.24179699 -0.1389213 0.20359278 -0.045898557
0001a0 52 6d 29 bc bc e5 47 bd 58 fd 34 3e 91 5e 3a 3c
       -0.010341005 -0.048803076 0.17674768 0.011375085
0001b0 62 ad 34 bd 80 78 0a 3e 8d 3c 8f bd 90 75 4a 3e
       -0.044110663 0.1352253 -0.06993971 0.19771409
0001c0 00 6a 23 bd de 8f 75 3e 61 03 2f 3e 18 7a 8f 3d
       -0.03989601 0.23980662 0.17091133 0.070057094
0001d0 4d 4b 47 3d bf b8 95 3d 3b b4 b3 3d 9a 0c 35 3e
       0.048655797 0.07310628 0.087746106 0.17680588
0001e0 3e 12 a4 3d 7e dc 34 3e be ec bc bd e9 ab 07 3b
       0.08011292 0.17662236 -0.092248425 0.0020701832
0001f0 57 7f 28 3e db 3e 37 3c c1 dd 65 3d d7 23 8b 3e
       0.16454826 0.0111844195 0.056119684 0.2717578

decoder.weight_ih_l0 f4 [20, 32]
000000 37 1c 9b 3e 3d 2a 96 bc f8 eb 95 bb 75 7b b5 3d
       0.30294964 -0.018330688 -0.004575249 0.08861438
000010 69 bf de 3d 35 b9 8b be 3c b6 04 be b0 77 20 bd
       0.10876352 -0.2728974 -0.12960142 -0.039176643
000020 1d 42 25 be 0a a1 c3 3e 64 35 83 be 3c d6 03 3f
       -0.16138501 0.382088 -0.2562667 0.5149877
000030 5e d0 02 bf 4b b8 1d be 80 24 e1 3e b8 fe fd be
       -0.51099193 -0.15402333 0.4397316 -0.49608397
000040 b9 b8 b8 be 30 54 cf 3e d9 5f f0 bc f3 ae 31 3e
       -0.36078432 0.40493917 -0.029342579 0.17351894
000050 98 c3 f0 3b 25 66 57 3e 0b d2 81 3e 88 ab ef be
       0.0073475353 0.21035059 0.25355563 -0.46810555
000060 11 18 89 3e af 5c b2 bc 85 f5 82 3d 49 ba ad 3c
       0.26776174 -0.02177271 0.063944854 0.021206992
000070 62 17 48 3e 72 30 44 be 25 29 0b 3e 3c 1b 94 bd
       0.1954017 -0.19159105 0.13589914 -0.07231757
000080 3f f6 91 bd 8c f1 16 3e 22 e6 0c 3e db ec 06 3e
       -0.07127046 0.1474058 0.13759664 0.1317629
000090 ed b8 8e 3d 12 67 2a 3d 74 5c 1a be c2 0f de 3e
       0.069688655 0.0416022 -0.1507433 0.43371397
0000a0 54 95 8a be 16 1b 52 3e 55 2a 13 bf fa 94 0c 3f
       -0.27067053 0.20518145 -0.5748647 0.5491482
0000b0 84 99 7c bd bd 50 9e be fe 93 d8 3e e5 f4 db be
       -0.06166984 -0.30920973 0.4230041 -0.42960277
0000c0 00 59 2f 3e cd be f3 3d ce c1 53 bd 09 ca 0a be
       0.17123795 0.11901627 -0.0516985 -0.13553633
0000d0 d4 5a 58 be 50 d2 98 be ed a4 ac 3d 01 2c 94 be
       -0.21128398 -0.29847956 0.084298946 -0.28939822
0000e0 5e e7 8e be 2c 6e f3 be 6d 94 91 3e a2 eb ea 3d
       -0.27910894 -0.47544992 0.28433552 0.11470725
0000f0 7b 95 5b 3e 36 9d 8b 3e f8 d5 39 3b c5 c6 97 3e
       0.21443741 0.2726838 0.0028356295 0.29643837
000100 12 35 00 be 2d 6b 53 be 9a f0 dc be 25 1f e9 be
       -0.12520245 -0.20646353 -0.43152314 -0.45531574
000110 f5 a9 fd bd 76 cf 6d 3e 05 9b ab 3e 91 5d 22 3f
       -0.12385932 0.23223671 0.33516708 0.6342402
000120 5f 32 5b 3e 0a 86 65 be 4b 97 77 3e 0f 01 e9 3e
       0.21405934 -0.22414413 0.24178807 0.4550862
000130 93 81 95 be 8c a8 67 be 3b db 4c 3e c2 21 71 bd
       -0.2920042 -0.2262289 0.20005505 -0.058870085
000140 22 97 09 be c0 46 11 3f 41 ed 21 3d 66 55 7d 3e
       -0.13436559 0.5674858 0.039532904 0.24739608
000150 8d e8 13 3e 16 92 54 3e 44 a0 8a be d6 7a 2d 3e
       0.1444418 0.20758852 -0.27075398 0.1694139
000160 6d 77 cf 3d cb 7d b8 bd f8 7c 15 3d 8c 25 3b 3d
       0.101302005 -0.09008368 0.036496133 0.045690104
000170 ec e0 04 3f b3 44 8b be 8f 4f 21 3e 74 af 58 3e
       0.51905704 -0.2720085 0.15753005 0.2116068
000180 c5 3f 97 be 20 f3 c0 be ed b3 b8 be ae 07 e9 bd
       -0.2954084 -0.3768549 -0.36074772 -0.11378418
000190 64 62 3b 3e a0 1c bd be fd d6 0c 3e 40 48 47 be
       0.18299252 -0.36935902 0.13753887 -0.19461155
0001a0 b8 e1 d4 be 5d a7 ca 3e 0b 23 2c 3d ca d8 03 bd
       -0.4157846 0.39580813 0.042025607 -0.032189168
0001b0 85 63 99 be 0e 66 03 3e c1 1a 9b 3e e2 bf a5 be
       -0.2995874 0.128319 0.3029385 -0.32372957
0001c0 3f 4a 12 bd 61 c0 d6 bd 35 af f2 bd 03 3b 63 3e
       -0.035715338 -0.10485912 -0.11849824 0.2219048
0001d0 aa 6a b8 3e ec 4b 43 3e d2 e2 d4 3e 16 5b e5 bd
       0.36018878 0.1907193 0.415793 -0.11199014
0001e0 50 8b 8a be ed e4 8e 3b 1d 8e 25 3d 44 47 19 be
       -0.27059412 0.004360786 0.040418733 -0.14968592
0001f0 e4 ba fd 3e 98 2f 30 3e 01 2f 90 3e 20 eb 6d 3e
       0.4955665 0.17205656 0.2816086 0.23234224
000200 c7 5b a7 be df 35 a1 3b a6 45 b8 be dd 09 b6 be
       -0.32687208 0.004919752 -0.35990638 -0.355544
000210 25 de b7 3e 42 8f 02 3f bd 1c 80 be 9c 79 f9 3c
       0.3591167 0.50999844 -0.25021926 0.030453496
000220 62 1d 33 be 62 0a 87 3e 5f e7 b9 be 4b ad 61 be
       -0.17491677 0.2637511 -0.36309335 -0.22038762
000230 01 24 b0 be 30 88 bd bc 87 b5 d0 3d 63 8b f8 be
       -0.3440247 -0.023136228 0.101908736 -0.48543844
000240 ce 5a f1 be 2e fa 93 3d b7 43 1e 3e d3 50 f7 bd
       -0.4713959 0.07225452 0.15455519 -0.12075963
000250 a7 e6 14 bf b2 8b bc 3e 0e 8f 50 3d 19 cc d7 3e
       -0.5816445 0.3682533 0.050917678 0.42147902
000260 3c 7c fc 3d ac f3 8e 3e 6b 52 af 3d 9d 52 2b be
       0.12328383 0.27920282 0.08560642 -0.16730733
000270 9f 7d 56 3e 4a 45 97 3e 81 fb aa 3e 5c 04 41 3e
       0.20946358 0.2954505 0.33395007 0.18849319
000280 3d 5f 28 be 53 c2 1c bf 36 58 00 be 91 26 ae be
       -0.1644258 -0.61234015 -0.1253365 -0.340138
000290 6b 43 e3 be 79 ae 84 be 71 17 6d be e0 45 7e bb
       -0.44387373 -0.25914362 -0.23153473 -0.0038798973
0002a0 da 4b 19 bf 85 20 d5 be eb d4 3a be b2 9f 9c 3a
       -0.59881365 -0.41626373 -0.18245284 0.0011949448
0002b0 48 d7 8d 3d d4 f3 94 be 24 90 26 3e fb 4e e6 3d
       0.06925827 -0.29092276 0.16265923 0.11245533
0002c0 4c d3 d0 bc 86 2d 93 be d7 a6 ad 3e 3f 12 0f 3f
       -0.02549138 -0.2874567 0.3391635 0.55887216
0002d0 5d 8f d5 bc a8 25 a1 be f5 a9 05 3f 0e ac ed 3c
       -0.026069338 -0.31474042 0.5221246 0.029012706
0002e0 a5 d5 27 3e 26 1b 0d 3e 0e 8a cc 3e 00 06 d7 be
       0.16390093 0.13779888 0.39949077 -0.41996765
0002f0 9a c3 e3 3d 2a 59 32 3e 0c 4e b6 be b9 de f1 3c
       0.111212924 0.17416826 -0.3560642 0.029525148
000300 2f 43 11 3e e1 a1 b3 be d1 53 c5 be 01 3d f9 3c
       0.14185785 -0.3508444 -0.3854051 0.030424597
000310 f7 82 ac 3e a1 cf 68 3d 7a 8a ab 3e 72 25 cd 3e
       0.33693668 0.056838635 0.33504087 0.4006763
000320 94 a5 fb 3c 10 93 39 3e b8 3f f2 be 3a fa 7f be
       0.030718602 0.18122506 -0.4731424 -0.24997798
000330 94 bd f2 3e a4 6b 50 3c b4 66 b3 3e 43 d3 32 3e
       0.47410262 0.012720976 0.35039294 0.17463402
000340 8e 00 2f be 13 69 d5 3e 9b c2 7c be 12 c2 00 3f
       -0.17090055 0.41681728 -0.24683611 0.5029613
000350 e0 6e 22 be 1c 7f 6f 3e 42 e8 bd be d0 11 aa 3e
       -0.15862608 0.23388332 -0.3709126 0.33216715
000360 dc f8 c5 be 8d b8 63 3e 93 d1 14 bd cd 40 b0 3e
       -0.38666427 0.2223837 -0.036332678 0.3442444
000370 24 89 a3 3e 53 65 ad be 0a 6c e8 bb a9 ae af bb
       0.31940567 -0.33866367 -0.0070929574 -0.0053613973
000380 50 cb e0 bd 77 c9 05 bf 50 2f ad 3d bd ef ce be
       -0.10976279 -0.52260536 0.0845629 -0.4041728
000390 6c b9 89 be b4 7d 5f be e8 51 f8 bc e6 08 fd 3e
       -0.26899278 -0.21825296 -0.030312493 0.4942085
0003a0 3c ba 7c bd 66 87 68 3e 39 71 9a be fa 1b 98 3e
       -0.061701044 0.227079 -0.30164507 0.29708844
0003b0 1c 2a 32 3e f3 d8 27 3e 64 c3 9e bd ef d4 eb 3d
       0.17398876 0.16391353 -0.077521116 0.11515223
0003c0 3f 2e 93 3d 1e 90 ff 3e 78 ea b7 be 48 81 6e 3e
       0.07186555 0.4991464 -0.35921073 0.23291504
0003d0 23 e2 be 3c ce fb b6 be b4 0f 5f 3d 0d aa 79 be
       0.02330119 -0.35738987 0.054458335 -0.24381275
0003e0 08 a7 a1 be f9 93 76 be 43 18 ce 3d 64 7e 34 be
       -0.31572747 -0.24079885 0.10063221 -0.17626339
0003f0 03 34 d0 bd 0a 75 fe bd b7 0f 71 3b 32 78 b6 be
       -0.101661704 -0.12424667 0.0036783048 -0.35638577

decoder.weight_hh_l0 f4 [20, 5]
000000 17 8f 40 be bf b3 52 be f0 5a 37 3e 7a fc ed 3c
       -0.18804584 -0.2057638 0.17905784 0.029051054
000010 59 17 4d be 86 78 8d be 5b 60 c3 be 1a 11 2c be
       -0.20028438 -0.27631015 -0.3815945 -0.16803399
000020 17 32 ec 3c cc a9 8e 3e ce b5 38 be 52 8d 4d 3e
       0.028832478 0.2786392 -0.18038103 0.2007344
000030 16 b6 a5 3e 44 b8 fb bd 53 45 8d 3e da 42 16 bd
       0.32365483 -0.12291005 0.27591953 -0.03668485
000040 01 aa b0 3e b2 cd 4b 3e 5e cb cb 3c 33 32 f9 3e
       0.34504703 0.19902685 0.024877246 0.4867111
000050 9c dd ed bd 6d 72 00 bd ec a2 c0 3d b5 cf 98 be
       -0.11614534 -0.031359125 0.09406075 -0.29845968
000060 50 bf bb 3e c7 a8 6d 3e 84 f7 06 3e 7b 32 86 3e
       0.36669397 0.23208915 0.13180357 0.2621039
000070 f2 ed 41 3c 10 4f 0d 3e 64 30 df be b4 ba 9c 3e
       0.011836516 0.13799691 -0.43591607 0.30611193
000080 de db 0a be 4c f2 16 bd 1c 16 0f bd 1d 6b ae 3e
       -0.13560435 -0.036852166 -0.034933195 0.34066096
000090 1e 23 03 bd e2 37 de bd 3e 75 29 3e 2c 7a 5e 3d
       -0.032015912 -0.108505026 0.1654863 0.05431573
0000a0 21 0e e8 3e 8c 10 46 be 78 4b c4 be 2b 8e 35 3e
       0.4532328 -0.1934225 -0.38338828 0.17730014
0000b0 43 e6 55 bc 01 fa ea be cb d4 8e 3e cd cb 0d 3d
       -0.013055387 -0.45893863 0.27896723 0.034618188
0000c0 a9 9d 3b 3e 79 02 eb ba cd 64 86 be 57 15 ef bc
       0.18321861 -0.0017929814 -0.2624878 -0.02918498
0000d0 16 f9 2a 3e 7f 7d 95 be a4 a0 aa 3e 90 84 60 3e
       0.16696581 -0.29197308 0.33325684 0.21925569
0000e0 74 fd c4 be 50 05 8f 3e c7 6b c8 3e d8 0c cb be
       -0.3847462 0.2793374 0.39144728 -0.39658237
0000f0 3c 2d 42 be b0 29 e8 3d 17 d5 49 be 38 65 84 3d
       -0.18962568 0.11336076 -0.19710194 0.064646184
000100 86 7d c1 3e 28 8b 88 be 95 b2 da 3d 99 ea 12 3e
       0.3779108 -0.26668668 0.10678593 0.14347304
000110 37 4c a9 bc 2d 55 1e 3b 35 58 13 be 42 40 b4 3e
       -0.020666225 0.0024159655 -0.14389117 0.35205275
000120 43 8d a9 3e ff a9 f2 3e f8 7f af bd ec 3b 9d 3e
       0.33115587 0.47395322 -0.0856933 0.3070978
000130 ad 8b e0 be 2f 1b 36 be c9 89 49 be 96 bb 47 3e
       -0.43856564 -0.17783807 -0.19681467 0.19505152
000140 12 ed d4 be 50 83 4e 3e 42 e5 69 be c4 16 d1 3d
       -0.4158712 0.20167279 -0.22841361 0.1020942
000150 c1 ed f7 be fb 1f aa be 7a 91 93 3c 1e d8 49 3e
       -0.4842358 -0.33227524 0.018013705 0.19711348
000160 3f 27 65 be e7 9b f2 be b2 ef 34 3e 3f 1a cc be
       -0.22378252 -0.4738457 0.17669562 -0.39863774
000170 f0 7f a4 be 43 8c 9b 3e d9 32 8c ba 9c cc 3e be
       -0.3212886 0.3038045 -0.0010696306 -0.1863274
000180 af 83 b3 3e db 63 03 be bc 01 c0 3d 22 1c 89 3d
       0.35061404 -0.1283106 0.09375331 0.06694819

decoder.bias_ih_l0 f4 [20]
000000 69 6d a4 3d 4d bc 50 bc 0e 83 27 be 68 00 e9 3e
       0.08028681 -0.012740207 -0.16358587 0.45508122
000010 43 de 88 3e be 62 a1 3e b0 db 45 be 2f d2 c5 3e
       0.26732072 0.31520647 -0.19322085 0.3863692
000020 0f 26 d5 3e 41 1f 99 3d a1 65 fc 3c 05 b8 08 bc
       0.416306 0.07476664 0.03081018 -0.008344655
000030 b7 d6 8b be 8e b4 b9 3e 61 76 66 be fb 59 8e 3e
       -0.27312252 0.36270565 -0.22506095 0.27803025
000040 87 3d f3 3d d1 8c ab 3e 4a 50 0d 3e 15 4e f4 3d
       0.1187697 0.33505872 0.13800159 0.119289555

decoder.bias_hh_l0 f4 [20]
000000 fa df 23 3d fe 21 94 3e 58 9a 54 be 3b 1a 7d 3e
       0.040008523 0.28932184 -0.20762002 0.24717037
000010 bd 02 f3 3e 6f 5f 19 be b7 75 b8 3e 9c 11 ad bd
       0.47463027 -0.14977811 0.3602731 -0.08450624
000020 16 02 7a be 81 ac b7 3d e7 92 8e 3e b6 fd 72 3d
       -0.24414858 0.089684494 0.27846453 0.05932399
000030 68 bc 3b bc f3 75 36 3e 1c e8 eb bd 27 26 0b 3e
       -0.011458494 0.17818432 -0.11518881 0.13588773
000040 a1 8a 93 bd 5f a2 e8 bd 7f a2 c0 bd ed 6d 83 bd
       -0.07204176 -0.11359095 -0.09405994 -0.06417451
